Model: "model"
_________________________________________________________________
Layer (type)                 Output Shape              Param #   
=================================================================
input (InputLayer)           [(None, 8820)]            0         
_________________________________________________________________
log_mel_spectrogram (LogMelS (None, 16, 64, 1)         0         
_________________________________________________________________
batch_normalization (BatchNo (None, 16, 64, 1)         256       
_________________________________________________________________
conv2d (Conv2D)              (None, 14, 1, 32)         6176      
_________________________________________________________________
batch_normalization_1 (Batch (None, 14, 1, 32)         128       
_________________________________________________________________
max_pooling2d (MaxPooling2D) (None, 14, 1, 32)         0         
_________________________________________________________________
conv2d_1 (Conv2D)            (None, 12, 1, 32)         3104      
_________________________________________________________________
batch_normalization_2 (Batch (None, 12, 1, 32)         128       
_________________________________________________________________
max_pooling2d_1 (MaxPooling2 (None, 6, 1, 32)          0         
_________________________________________________________________
flatten (Flatten)            (None, 192)               0         
_________________________________________________________________
dense (Dense)                (None, 64)                12352     
_________________________________________________________________
dropout (Dropout)            (None, 64)                0         
_________________________________________________________________
dense_1 (Dense)              (None, 10)                650       
=================================================================
Total params: 22,794
Trainable params: 22,538
Non-trainable params: 256
_________________________________________________________________
<RepeatDataset shapes: ((None, 8820), (None,)), types: (tf.float32, tf.int32)>
Train for 32 steps, validate for 32 steps
Epoch 1/50
 1/32 [..............................] - ETA: 19s - los
…
