Model: "model"
_________________________________________________________________
Layer (type)                 Output Shape              Param #   
=================================================================
input (InputLayer)           [(None, 13230)]           0         
_________________________________________________________________
log_mel_spectrogram (LogMelS (None, 24, 64, 1)         0         
_________________________________________________________________
batch_normalization (BatchNo (None, 24, 64, 1)         256       
_________________________________________________________________
conv2d (Conv2D)              (None, 22, 1, 32)         6176      
_________________________________________________________________
batch_normalization_1 (Batch (None, 22, 1, 32)         128       
_________________________________________________________________
max_pooling2d (MaxPooling2D) (None, 22, 1, 32)         0         
_________________________________________________________________
conv2d_1 (Conv2D)            (None, 20, 1, 32)         3104      
_________________________________________________________________
batch_normalization_2 (Batch (None, 20, 1, 32)         128       
_________________________________________________________________
max_pooling2d_1 (MaxPooling2 (None, 10, 1, 32)         0         
_________________________________________________________________
flatten (Flatten)            (None, 320)               0         
_________________________________________________________________
dense (Dense)                (None, 64)                20544     
_________________________________________________________________
dropout (Dropout)            (None, 64)                0         
_________________________________________________________________
dense_1 (Dense)              (None, 25)                1625      
=================================================================
Total params: 31,961
Trainable params: 31,705
Non-trainable params: 256
_________________________________________________________________
<RepeatDataset shapes: ((None, 13230), (None,)), types: (tf.float32, tf.int32)>
Train for 32 steps, validate for 32 steps
Epoch 1/50
 1/32 [..............................] - ETA: 20s - los
…
